cifar_trained_dataset_params.pth (torch, 251934 bytes, 10 tensors)

conv1.weight f4 [6, 3, 5, 5]
-0.24188334 -0.48730457 -0.39666426 -0.15918148 0.016369624 -0.11692939 -0.0725818 -9.64573e-05
-0.046924733 -0.013360111 0.005182455 0.54634076 0.22740848 0.108201504 0.31953636 0.16643615
0.31723994 0.22010092 0.28385848 0.24001202 0.42274743 0.25707084 0.03236314 -0.040664118
0.1896312 0.067078814 -0.3685177 -0.15070324 0.23035133 0.34350577 -0.20103744 0.05232169
0.05696834 -0.04557064 -0.2066675 -0.10791467 0.33981767 0.13013287 -0.14912409 -0.3718564
-0.048514735 0.18923889 -0.0049360683 -0.17957403 -0.501931 0.2594499 -0.076163076 -0.16889699
-0.16587317 -0.33774263 0.14695059 -0.11236492 -0.021270726 0.13605087 0.16637787 -0.13290976
0.20556666 0.24535833 -0.038988914 -0.26393163 -0.06470944 0.5601765 0.26971278 0.07614654
-0.4164727 0.09589498 0.46221462 0.35861942 -0.0127977 -0.46331033 0.3428858 0.26022765
0.2431961 0.06571199 -0.25197804 0.20728044 -0.0015985912 0.10703686 0.13079281 0.15963678
-0.047199346 -0.25702983 -0.48109704 -0.35233346 -0.22325902 -0.10679976 -0.53783745 -0.58783036
-0.4740216 -0.4455953 -0.060586087 -0.39604512 -0.3800767 -0.1616763 -0.113410324 0.18905793
-0.20863351 -0.13132814 0.08618659 -0.035372254 -0.33926767 -0.2613357 -0.13878863 0.059427492
0.033199586 0.16220191 -0.07555502 0.047838848 0.02286742 0.051234614 -0.027744656 -0.13191466
-0.018382126 0.21018046 0.1459322 -0.0838497 -0.20086189 -0.19351129 0.010811389 0.050459195
-0.21174105 -0.19487897 -0.21698684 -0.002239676 -0.00402194 -0.118687265 0.026259685 0.39813536
0.3938796 0.17491405 0.39238244 0.55749375 0.48891932 0.51122445 0.1681176 0.3429822
0.4781641 0.23144859 0.50977516 0.30980232 0.28879106 0.25686237 0.21260746 0.23242381
0.14593829 0.03424075 -0.05886362 0.048740108 0.09807427 -0.026382525 0.33721343 0.4132952
0.46691963 0.4362097 0.30047512 0.4328154 0.58090806 0.63857335 0.69770306 0.55565995
0.3306537 0.56820244 0.5878287 0.501323 0.47051975 -0.4237761 -0.3844735 -0.6662011
-0.43513405 -0.15326902 -0.5086276 -0.6295427 -0.8273646 -0.72888386 -0.57953054 -0.51514894
-0.36483696 -0.23398145 -0.330101 -0.3244514 -0.50259066 -0.4649792 -0.26390767 -0.14833985
-0.22305287 -0.09521445 0.07263197 -0.03629743 0.20278966 0.12588187 -0.19005217 -0.46597838
-0.501202 -0.38500044 -0.07178158 0.076342724 0.03032946 -0.12719648 -0.12082907 -0.02843695
-0.08179377 -0.1446738 0.028167862 0.0030828821 0.035273023 -0.28196216 -0.30613983 -0.24340567
-0.12511803 -0.04285555 0.16350523 0.31801248 0.36552724 0.355279 0.3930162 0.21703447
0.13714534 -0.07282452 -0.032105967 0.14974904 0.42348045 0.42360517 0.2646522 0.16284505
0.042053603 -0.30149955 -0.08334963 0.046127975 0.08773778 -0.10924297 -0.12850815 0.08265205
0.21457274 -0.04556106 -0.10488463 0.24475154 0.23404148 -0.0733894 -0.35993168 -0.14423217
0.4658751 -0.16754004 -0.624256 -0.3158444 0.39812255 -0.3085772 -0.6694829 0.07801954
0.45102623 0.7247484 0.03582942 -0.16019689 -0.03496566 0.16066273 -0.01613671 0.016015705
00000000: 44b0 77be fc7f f9be 9417 cbbe 7800 23be
00000010: 9719 863c ad78 efbd c4a5 94bd 1e49 cab8
00000020: 2634 40bd 5ee4 5abc 95d1 a93b fddc 0b3f
00000030: c5dd 683e c098 dd3d 459a a33e 3d6e 2a3e
00000040: 466d a23e 2362 613e e655 913e b6c5 753e
00000050: 5a72 d83e ca9e 833e 368f 043d 6b8f 26bd
00000060: ae2e 423e 9e60 893d 5aae bcbe f351 1abe
00000070: 38e1 6b3e fddf af3e c2dc 4dbe 454f 563d
00000080: a257 693d 48a8 3abd a5a0 53be 5e02 ddbd
00000090: 95fc ad3e 8d41 053e fcb3 18be f663 bebe
000000a0: 63b7 46bd d7c7 413e bebe a1bb 41e2 37be
000000b0: 8d7e 00bf 9ed6 843e 63fb 9bbd 55f3 2cbe
000000c0: a8da 29be 9aec acbe 377a 163e 941f e6bd
000000d0: f23f aebc eb50 0b3e f65e 2a3e 7f19 08be
000000e0: 1180 523e 373f 7b3e d7b2 1fbd 0c22 87be
000000f0: 6286 84bd ba67 0f3f cb17 8a3e b8f2 9b3d
00000100: e93b d5be 9664 c43d 65a7 ec3e f79c b73e
00000110: 72ad 51bc 0337 edbe ba8e af3e 8f3c 853e
00000120: 6608 793e 0294 863d 4403 81be 5341 543e
00000130: d287 d1ba 2436 db3d 8dee 053e d377 233e
00000140: 1a54 41bd 6a99 83be 5a52 f6be 0d65 b4be
00000150: 039e 64be d5b9 dabd b7af 09bf 0d7c 16bf
00000160: f6b2 f2be 1125 e4be 1e29 78bd 6dc6 cabe
00000170: 6a99 c2be 798e 25be ac43 e8bd 6798 413e
00000180: 06a4 55be e27a 06be 9882 b03d 7fe2 10bd
00000190: 7eb4 adbe cbcd 85be 9b1e 0ebe 3e6a 733d
000001a0: 4afc 073d 4218 263e 97bc 9abd abf2 433d
000001b0: 7554 bb3c 63db 513d c348 e3bc a314 07be
000001c0: 1d96 96bc 8c39 573e 406f 153e 64b9 abbd
000001d0: bdae 4dbe d327 46be 4122 313c 4dae 4e3d
000001e0: a5d2 58be 5a8e 47be cc31 5ebe 87c7 12bb
000001f0: 7aca 83bb 4f12 f3bd 8d1e d73c 66d8 cb3e
00000200: 96aa c93e ab1c 333e 5ae6 c83e e9b7 0e3f
00000210: a253 fa3e 9bdf 023f 0527 2c3e 5d9b af3e
00000220: edd1 f43e dc00 6d3e a080 023f 699e 9e3e
00000230: 6cdc 933e 7783 833e c5b5 593e 8200 6e3e
00000240: d970 153e 0740 0c3d fb1a 71bd b5a3 473d
00000250: 2adb c83d 2a20 d8bc 3da7 ac3e 6e9b d33e
00000260: 1710 ef3e e156 df3e e0d7 993e fb99 dd3e
00000270: 64b6 143f 8b79 233f ab9c 323f bb3f 0e3f
00000280: 714b a93e b775 113f f17b 163f b456 003f
00000290: f7e7 f03e 2ef9 d8be b6d9 c4be 288c 2abf
000002a0: e4c9 debe 8ef2 1cbe 6b35 02bf b629 21bf
000002b0: 2bce 53bf 2298 3abf 1d5c 14bf cde0 03bf
000002c0: e9cb babe d598 6fbe 0003 a9be 7e1e a6be
000002d0: c8a9 00bf c111 eebe e81e 87be 67e6 17be
000002e0: f967 64be cbff c2bd 12c0 943d 9dac 14bd
000002f0: 18a8 4f3e 2de7 003e 099d 42be b894 eebe
00000300: c64e 00bf c71e c5be 3902 93bd 9359 9c3d
00000310: 7d75 f83c cb3f 02be 3b75 f7bd 9bf4 e8bc
00000320: 7e83 a7bd 5e25 14be 4ac0 e63c 2e0a 4a3b
00000330: 727a 103d 585d 90be 5cbe 9cbe 563f 79be
00000340: f11e 00be 4d89 2fbd ea6d 273e 88d2 a23e
00000350: 6326 bb3e 21e7 b53e 6b39 c93e 493e 5e3e
00000360: d46f 0c3e 0625 95bd 8c81 03bd d057 193e
00000370: 6ed2 d83e c7e2 d83e 7e80 873e dac0 263e
00000380: 6640 2c3d 265e 9abe 36b3 aabd b0f0 3c3d
00000390: ddaf b33d c7ba dfbd a497 03be 7a45 a93d
000003a0: f5b8 5b3e 3c9e 3abd c1cd d6bd 26a0 7a3e
000003b0: 92a8 6f3e 2f4d 96bd f748 b8be 99b1 13be
000003c0: 2e87 ee3e 9e8f 2bbe 3ecf 1fbf 5bb6 a1be
000003d0: b8d6 cb3e d5fd 9dbe 3b63 2bbf b5c8 9f3d
000003e0: e9ec e63e 1c89 393f dfc1 123d a70a 24be
000003f0: 2738 0fbd c584 243e 2231 84bc 5e33 833c

conv1.bias f4 [6]
0.0048897685 0.3643254 -0.5183681 -0.53748053 -0.62888795 -0.42619038
00000000: 5a3a a03b dc88 ba3e c6b3 04bf 5398 09bf
00000010: cdfe 20bf a035 dabe

conv2.weight f4 [16, 6, 5, 5]
0.4451114 0.17576851 -0.0018396213 -0.084395654 0.08224634 0.084765136 -0.05233788 -0.06388501
-0.018476835 -0.0865351 0.058936927 -0.117710836 0.09733001 0.052647367 0.11931698 0.08764623
-0.15882586 -0.09888913 -0.22415897 0.023739103 0.12371963 -0.14280161 -0.2418101 -0.2126812
-0.123435594 -0.0034021575 -0.020560425 -0.04477598 -0.040548865 0.06857321 -0.047241066 0.007885538
0.09211165 0.035112042 0.060576916 -0.16168216 -0.23871876 -0.23341328 -0.10565643 0.086752884
0.06426978 -0.019871457 -0.0021429048 0.16444002 0.22032811 0.21143985 0.08829557 0.019172143
0.02367502 0.37374237 0.031529784 0.1232196 0.19891569 0.22332366 0.13357125 0.27473333
0.0026791699 0.026354278 -0.0778655 -0.2365557 0.08696224 0.09064999 -0.084754184 0.11542721
0.35927233 0.24904205 0.33533064 0.2110856 -0.0032448792 0.18543722 0.06324363 0.055277318
0.05505249 0.10465951 0.21775669 0.09695782 -0.016462818 0.026598522 0.062318187 -0.14822817
0.0082604075 -0.0037630568 0.03993129 -0.05926263 -0.021854606 -0.112787716 0.021737354 -0.017591741
-0.068596594 0.028253999 -0.041692033 -0.051994875 0.06566808 0.0054654223 -0.04029942 -0.1788926
-0.08904332 -0.07338609 -0.10027725 -0.13681169 0.06516279 0.174735 0.036584422 0.10184449
0.09980772 0.18615027 0.10915036 0.09581142 0.19897075 0.15116744 0.28527287 0.13293853
0.068116695 0.1351451 0.38790688 0.114669494 0.13263085 0.12591429 0.22921824 0.25368625
0.026235176 0.084945835 -0.14137936 0.00019061282 0.32347572 -0.0051660175 0.12936059 0.03487901
0.11020463 -0.20317484 -0.17095613 -0.0321104 -0.39164066 -0.39239737 -0.113373294 -0.32569832
-0.5651283 -0.785774 -0.6049424 -0.37756374 -0.45945105 -0.69230735 -0.67102295 -0.50336426
-0.23375043 -0.3965805 -0.57263017 -0.47134572 -0.3278887 -0.22198391 -0.08493765 -0.14474194
-0.1854884 -0.23300691 -0.14367163 0.07524284 -0.1944483 -0.40524983 -0.2331587 -0.07122201
0.18584003 -0.2536003 -0.17296384 -0.07304536 0.15465017 0.1430793 0.07216531 0.04948969
0.043651607 0.06130737 0.1824636 0.39642903 0.45005956 0.40555122 0.33148098 0.17742263
0.014307046 0.07459395 0.08185519 0.21983533 0.24157518 0.030265415 -0.13679509 -0.105939895
0.08657068 0.0337692 -0.066758804 -0.09362704 -0.11397445 -0.11839521 0.070908256 -0.07335748
-0.07298663 0.0024644507 0.0127776535 0.107224695 -0.060699787 0.045556057 0.18183643 0.2329369
-0.12682524 -0.056873698 -0.08799296 -0.096789144 -0.068216786 -0.07201362 -0.03652193 -0.15667509
-0.12210382 -0.0790546 -0.0055950573 -0.041200697 -0.05828684 -0.10683869 0.08468921 -0.1451824
-0.12637767 0.033640917 -0.069155134 -0.0058333403 -0.05476833 -0.1269578 -0.10072768 -0.060674682
0.09922945 -0.06711601 -0.03393746 -0.08736688 -0.06439359 -0.14665206 0.0074166427 0.069339484
-0.008499777 0.10292415 0.19403896 0.23884551 0.054419823 -0.0349567 0.09131783 0.14089887
0.011400964 0.23033223 0.315131 -0.060022958 0.1031165 0.19406876 -0.098640956 -0.13912553
-0.09728564 -0.035360947 -0.16169304 -0.23135649 -0.25269964 -0.10971848 0.0019920901 -0.35423607
00000000: a4e5 e33e a9fc 333e 731f f1ba a1d7 acbd
00000010: c570 a83d 5899 ad3d 3f60 56bd 25d6 82bd
00000020: bb5c 97bc 5139 b1bd d967 713d 6112 f1bd
00000030: f554 c73d c4a4 573d 765c f43d de7f b33d
00000040: 3fa3 22be 6286 cabd ee89 65be 8278 c23c
00000050: b860 fd3d 963a 12be 119d 77be 1ac9 59be
00000060: cdcb fcbd bbf6 5ebb 566e a8bc 0567 37bd
00000070: 9116 26bd 1c70 8c3d d97f 41bd 5832 013c
00000080: 08a5 bc3d a5d1 0f3d 801f 783d 0290 25be
00000090: b172 74be e403 6fbe 6662 d8bd 7fab b13d
000000a0: e09f 833d 77c9 a2bc fa6f 0cbb f762 283e
000000b0: b19d 613e b083 583e 4fd4 b43d e60e 9d3c
000000c0: 1ef2 c13c 295b bf3e 6025 013d 8f5a fc3d
000000d0: 8eb0 4b3e f5ae 643e e7c6 083e d9a9 8c3e
000000e0: 0395 2f3b ede4 d73c f277 9fbd a83b 72be
000000f0: 4219 b23d b4a6 b93d 9a93 adbd 1a65 ec3d
00000100: 8bf2 b73e e104 7f3e 75b0 ab3e d326 583e
00000110: 0aa8 54bb 41e3 3d3e e085 813d 786a 623d
00000120: b87e 613d ba57 d63d 9cfb 5e3e d291 c63d
00000130: 08dd 86bc 25e5 d93c 5b41 7f3d 20c9 17be
00000140: a956 073c 9e9d 76bb fe8e 233d 5fbd 72bd
00000150: 6e08 b3bc 3ffd e6bd 8912 b23c 8e1c 90bc
00000160: 5f7c 8cbd ee74 e73c 44c5 2abd 94f8 54bd
00000170: fc7c 863d 4917 b33b 0111 25bd 9f2f 37be
00000180: 585c b6bd 724b 96bd 295e cdbd 5d18 0cbe
00000190: 1274 853d bbed 323e 8cd9 153d d893 d03d
000001a0: fd67 cc3d 2d9e 3e3e 398a df3d c738 c43d
000001b0: fdbe 4b3e a3cb 1a3e 490f 923e 0a21 083e
000001c0: c480 8b3d 7a63 0a3e bb9b c63e d7d7 ea3d
000001d0: 62d0 073e adef 003e 30b8 6a3e 2ae3 813e
000001e0: 27eb d63c 15f8 ad3d c0c5 10be 3ddf 4739
000001f0: 9c9e a53e b247 a9bb 1a77 043e 4bdd 0e3d
00000200: f7b2 e13d 110d 50be 200f 2fbe 3286 03bd
00000210: 2085 c8be 4fe8 c8be 4230 e8bd eec1 a6be
00000220: 40ac 10bf 7c28 49bf 81dd 1abf 0950 c1be
00000230: 2b3d ebbe 0e3b 31bf 29c8 2bbf 7bdc 00bf
00000240: 465c 6fbe 990c cbbe e497 12bf 3a54 f1be
00000250: 07e1 a7be c04f 63be caf3 adbd 3b37 14be
00000260: acf0 3dbe 5d99 6ebe a81e 13be eb18 9a3d
00000270: 751d 47be e87c cfbe 27c1 6ebe d8dc 91bd
00000280: d94c 3e3e e6d7 81be 6f1d 31be ce98 95bd
00000290: 9d5c 1e3e 6183 123e 68cb 933d b4b5 4a3d
000002a0: 07cc 323d 701d 7b3d bdd7 3a3e bff8 ca3e
000002b0: 356e e63e 69a4 cf3e e0b7 a93e 47ae 353e
000002c0: 1a68 6a3c b6c4 983d b2a3 a73d 831c 613e
000002d0: 7c5f 773e 2def f73c 0314 0cbe 04f7 d8bd
000002e0: f84b b13d 9351 0a3d d7b8 88bd 89bf bfbd
000002f0: 706b e9bd 3079 f2bd 5938 913d 723c 96bd
00000300: 047a 95bd 9f82 213b 5d59 513c 9f98 db3d
00000310: 57a0 78bd fd98 3a3d 5433 3a3e 0387 6e3e
00000320: 7ade 01be 65f4 68bd a735 b4bd 6339 c6bd
00000330: 3eb5 8bbd e07b 93bd 0598 15bd 6f6f 20be
00000340: 9111 fabd 61e7 a1bd be56 b7bb 10c2 28bd
00000350: 2ebe 6ebd 3ece dabd 8971 ad3d b2aa 14be
00000360: 2669 01be 0fcb 093d 35a1 8dbd 9b25 bfbb
00000370: c254 60bd 3a01 02be 504a cebd 0486 78bd
00000380: cf38 cb3d 1e74 89bd 0202 0bbd 68ed b2bd
00000390: c9e0 83bd f52b 16be 4f07 f33b dc01 8e3d
000003a0: a642 0bbc e6c9 d23d 26b2 463e eb93 743e
000003b0: 52e7 5e3d c22e 0fbd d804 bb3d cb47 103e
000003c0: 1ccb 3a3c 36dc 6b3e da58 a13e a2da 75bd
000003d0: be2e d33d f6b9 463e 4504 cabd ec76 0ebe
000003e0: b23d c7bd a4d6 10bd dc92 25be b7e8 6cbe
000003f0: d961 81be 15b4 e0bd ba8d 023b 6e5e b5be

conv2.bias f4 [16]
1.0867496 0.65053046 -0.6238691 1.5678413 -1.487482 -0.4376028 0.23493092 -0.14056621
1.2770481 -0.2743783 -0.02653522 1.8442552 -0.055072892 0.58731884 -2.0659254 0.023698116
00000000: 9c1a 8b3f 2a89 263f e3b5 1fbf 06af c83f
00000010: cf65 bebf 790d e0be bb91 703e 97f0 0fbe
00000020: 5076 a33f 507b 8cbe 6460 d9bc 8e10 ec3f
00000030: 1d94 61bd 875a 163f 1f38 04c0 8d22 c23c

fc1.weight f4 [120, 400]
-0.052850045 0.027211983 0.0056665814 0.0027073077 -0.058739804 -0.06154992 -0.055066325 0.022494752
0.0040983753 -0.014718588 -0.04158783 -0.029956141 -0.020368353 0.02211601 0.035164993 -0.0040805833
-0.0485248 -0.04664941 0.044325925 0.03095543 0.017108884 0.034496214 0.030319454 -0.029186444
-0.016661176 -0.04403979 -0.01386312 -0.012507269 -0.05016638 -0.03343124 0.033458818 0.040417794
-0.047816858 -0.036836762 0.008261364 0.03157009 0.038236078 -0.044857275 0.029119443 -0.03135138
0.027611597 -0.039661016 -0.038403016 -0.042670395 0.0032518902 0.004456917 -0.013041275 0.044248916
-0.02336289 -0.015484866 -0.037858613 -0.013514762 0.004596722 0.04432456 0.0433653 -0.043623157
-0.008581431 -0.028350338 -0.009303896 -0.023230158 0.03408019 0.04798719 5.8571964e-05 -0.046320766
0.07734642 0.051714435 -0.011943476 -0.019444583 -0.018371904 0.0044963346 0.0022279907 0.0006333512
0.0051042684 0.03590029 -0.008438594 0.018185899 -0.018844262 0.019957261 -0.050011404 -0.007832354
-0.014471433 0.03841721 0.02392722 0.025163546 -0.021311425 -0.030140301 -0.0054206667 0.0011415385
-0.039268073 -0.009097336 0.01697388 -0.0050229514 -0.03822146 -0.006268592 0.032370202 0.0249638
-0.020850293 0.030815367 -0.018559087 0.03358538 -0.015375077 0.019846857 -0.038356423 -0.02981553
-0.012742566 -0.018267073 -0.044079736 0.02857069 0.04192618 -0.030749807 -0.019982047 -0.03363308
0.013664826 0.008321906 -0.038080767 0.020304225 -0.029035514 0.009868915 0.037076484 -0.021460744
0.009665948 -0.009979142 -0.029267015 0.0046066074 -0.025458558 0.0011459896 -0.0041228337 -0.024458004
0.012084275 -0.009989176 -0.0063293083 -0.0069561917 -0.041593015 0.026148157 0.01791168 0.034273483
-0.038481284 -0.0433598 -0.033355854 -0.036794044 -0.012722063 0.022429239 -0.052881066 0.020775227
-0.005253515 -0.049431115 0.021143317 0.009831374 0.03554158 -0.006722889 0.005909156 0.04334114
-0.010941688 -0.028422233 -0.0034147752 0.03478045 -0.035376597 -0.0026640692 0.047374647 0.018449686
-0.03217824 -0.058228318 0.029561603 -0.003425119 -0.017119503 0.03326221 0.03552565 -0.04094478
0.048975658 0.008283158 -0.02557195 -0.012654811 0.033951093 0.03912368 0.0040402925 -0.0315675
0.015652986 -0.01947054 -0.0036683173 0.0031283307 -0.014219672 0.029400393 -0.0031256308 0.025991788
0.06256085 0.014200902 -0.05154816 -0.041354768 -0.012379132 0.0039487756 -0.03954529 0.010651008
0.022941042 0.024396624 0.014368431 0.002437083 -0.022264471 -0.01808032 0.003931507 -0.044266608
0.056613702 0.054232836 -0.02921351 0.023849526 0.029340992 -0.0012738022 -0.04342783 0.016717881
-0.010064458 0.0077175307 0.025889361 -0.0068553337 0.039090823 -0.031428188 -0.036330465 -0.045444854
-0.0056037 -0.038800728 -0.02543358 0.015406811 0.027992435 -0.021227978 0.01568955 0.01166007
-0.046159323 0.044156674 0.00022049913 0.002456067 -0.0059654294 -0.025238218 0.022607865 0.002828858
-0.04308885 0.002819312 -0.0019387883 -0.024115749 -0.030236801 0.012645784 0.02377739 0.016469244
0.022954825 -0.028176129 -0.005087842 -0.0095406715 -0.012720637 -0.018214164 -0.021796584 0.03828772
-0.04933223 -0.03685546 0.0010438866 -0.05045077 -0.02554782 0.026776576 0.0446409 -0.03092234
00000000: 4a79 58bd aaeb de3c bbae b93b 166d 313b
00000010: 2699 70bd c51b 7cbd 3a8d 61bd ea46 b83c
00000020: aa4b 863b 3c26 71bc 0058 2abd 9566 f5bc
00000030: 88db a6bc a22c b53c 2b09 103d 6ab6 85bb
00000040: f1c1 46bd 7413 3fbd 1a8f 353d 3e96 fd3c
00000050: ee27 8c3c e74b 0d3d 8160 f83c 6918 efbc
00000060: 057d 88bc 1163 34bd 2422 63bc 4aeb 4cbc
00000070: 437b 4dbd 32ef 08bd 1d0c 093d 218d 253d
00000080: 9cdb 43bd 25e2 16bd ac5a 073c a44f 013d
00000090: 6f9d 1c3d 43bc 37bd e68b ee3c 4e6a 00bd
000000a0: b731 e23c 9773 22bd 7b4c 1dbd 27c7 2ebd
000000b0: aa1d 553b 540b 923b 12ab 55bc 5a3e 353d
000000c0: 8863 bfbc 3cb4 7dbc a211 1bbd 056d 5dbc
000000d0: 19a0 963b ab8d 353d d09f 313d 32ae 32bd
000000e0: 2199 0cbc f83e e8bc 5e6f 18bc 2c4d bebc
000000f0: ab97 0b3d 378e 443d 2bab 7538 d8ba 3dbd
00000100: cd67 9e3d 84d2 533d 92ae 43bc 3f4a 9fbc
00000110: ad80 96bc fd55 933b 7b03 123b 7b07 263a
00000120: b541 a73b 2f0c 133d 0742 0abc 98fa 943c
00000130: 485f 9abc 697d a33c c2d8 4cbd 4653 00bc
00000140: 9719 6dbc 5d5b 1d3d 0403 c43c c823 ce3c
00000150: 4c95 aebc cbe8 f6bc d99f b1bb ad9f 953a
00000160: 8fd7 20bd fe0c 15bc ce0c 8b3c 9297 a4bb
00000170: 1b8e 1cbd c368 cdbb 9e96 043d e280 cc3c
00000180: 3cce aabc 8270 fc3c 3a09 98bc d390 093d
00000190: bfe7 7bbc e095 a23c a01b 1dbd b33f f4bc
000001a0: 32c6 50bc d4a4 95bc f48c 34bd 140d ea3c
000001b0: c9ba 2b3d 05e7 fbbc 64b1 a3bc d7c2 09bd
000001c0: 6fe2 5f3c 9b58 083c 94fa 1bbd 0c55 a63c
000001d0: e3db edbc 3bb1 213c 83dd 173d 71ce afbc
000001e0: ed5d 1e3c 8e7f 23bc 61c1 efbc 06f3 963b
000001f0: 778e d0bc 0835 963a d618 87bb 275c c8bc
00000200: 1ffd 453c a4a9 23bc 1666 cfbb c4f0 e3bb
00000210: 705d 2abd a934 d63c 84bb 923c 5a62 0c3d
00000220: 8d9e 1dbd 0c9a 31bd 26a0 08bd 5ab5 16bd
00000230: 3370 50bc 86bd b73c d199 58bd cf30 aa3c
00000240: ae25 acbb 4878 4abd c034 ad3c c513 213c
00000250: 0c94 113d ae4b dcbb 98a1 c13b 7b86 313d
00000260: c444 33bc bed5 e8bc 6cca 5fbb f275 0e3d
00000270: 0de7 10bd aa97 2ebb eb0b 423d cc23 973c
00000280: 55cd 03bd d180 6ebd 2d2b f23c f677 60bb
00000290: 333e 8cbc f53d 083d 5883 113d b7b5 27bd
000002a0: b39a 483d 15b6 073c 447c d1bc 2056 4fbc
000002b0: 4d10 0b3d 2740 203d 6e64 843b ec4c 01bd
000002c0: b13a 803c af80 9fbc 2768 70bb ae04 4d3b
000002d0: a1f9 68bc 18d9 f03c 62d7 4cbb bbec d43c
000002e0: e71f 803d e6aa 683c 2a24 53bd 9e63 29bd
000002f0: d8d1 4abc bb64 813b 3efa 21bd 9181 2e3c
00000300: daee bb3c 6edb c73c 9169 6b3c 78b7 1f3b
00000310: fb63 b6bc 2e1d 94bc dfd3 803b e750 35bd
00000320: c5e3 673d 4023 5e3d 2c51 efbc 1560 c33c
00000330: 855c f03c b6f5 a6ba 61e1 31bd f0f3 883c
00000340: 65e5 24bc 57e3 fc3b ed15 d43c b5a2 e0bb
00000350: b31d 203d d8ba 00bd 41cf 14bd 6224 3abd
00000360: 3e9f b7bb 83ed 1ebd 155a d0bc d96c 7c3c
00000370: 6450 e53c 4ce6 adbc 5f87 803c e109 3f3c
00000380: 8f11 3dbd a1dd 343d c935 6739 f7f5 203b
00000390: a679 c3bb 61c0 cebc 2134 b93c 5d64 393b
000003a0: ef7d 30bd 35c4 383b f11e feba 648e c5bc
000003b0: 2bb3 f7bc 4330 4f3c cdc8 c23c 82ea 863c
000003c0: c20b bc3c a0d1 e6bc e9b7 a6bb 7a50 1cbc
000003d0: 386a 50bc df35 95bc c08e b2bc 96d3 1c3d
000003e0: 9810 4abd c0f5 16bd 06d3 883a 77a5 4ebd
000003f0: a949 d1bc 8d5a db3c 60d9 363d d950 fdbc

fc1.bias f4 [120]
0.00948361 0.019271513 0.017169246 0.14223385 0.105941035 0.008445761 0.013265812 0.20901205
-0.12403826 -0.14083233 -0.19948117 -0.023117432 -0.22879851 0.41627225 0.11329234 0.04125464
0.053780034 -0.22076048 -0.29123285 -0.1331359 0.028487422 0.011967134 -0.21413259 -0.031367056
0.34607592 0.45503977 -0.19686888 0.1819883 0.10582674 0.24743359 0.19620909 0.096655056
0.20093393 0.2519497 -0.14683512 0.0030731265 0.07660024 -0.32652363 -0.00076258363 -0.14478528
0.32136148 -0.06702988 0.082439765 -0.060370173 -0.14869021 0.2980256 0.0030533827 0.13305852
0.016548479 0.014457079 0.09491604 -0.05588625 -0.101055816 0.12131956 -0.050643977 -0.101487756
-0.109181166 -0.06615948 0.15228677 0.21153021 0.24604627 0.20417105 0.039697215 0.15682714
-0.0532612 0.31629562 0.18309107 0.07336227 -0.0017741248 -0.0026468127 0.029458584 0.1129654
0.23843624 -0.006767645 0.15250595 -0.12127364 -0.02226154 -0.06206741 -0.1346739 -0.18138528
0.03220008 -0.07647237 0.26545444 0.007560419 0.007793212 -0.09383699 -0.05955427 0.12870732
0.16883877 -0.028606107 -0.10238894 -0.089007 0.26663706 -0.2289216 0.2621386 0.031483043
-0.3432174 -0.15633044 0.1271117 0.035303198 0.14288439 0.05631566 0.042960536 0.30543387
0.060917053 -0.15913993 0.20657952 0.0025135865 -0.03383442 -0.07047054 0.020129701 -0.04001162
-0.21811128 0.04667192 0.16275798 0.11746421 -0.092472956 0.107300006 0.25011298 0.09500486
00000000: 2561 1b3c 4bdf 9d3c 85a6 8c3c c0a5 113e
00000010: 9df7 d83d 1760 0a3c d958 593c 4107 563e
00000020: c507 febd 5a36 10be cb44 4cbe c560 bdbc
00000030: 284a 6abe a321 d53e d005 e83d a0fa 283d
00000040: 7448 5c3d 090f 62be 791c 95be c754 08be
00000050: 745e e93c cc11 443c 9345 5bbe be7a 00bd
00000060: dd30 b13e f9fa e83e ff97 49be 245b 3a3e
00000070: b1bb d83d 3b5f 7d3e 09eb 483e 16f3 c53d
00000080: a0c1 4d3e 8dff 803e f25b 16be 8266 493b
00000090: 96e0 9c3d 1b2e a7be 1fe8 47ba 9842 14be
000000a0: 7e89 a43e f646 89bd 2ed6 a83d b746 77bd
000000b0: 3f42 18be d096 983e 431b 483b 7e40 083e
000000c0: ad90 873c 62dd 6c3c 5763 c23d fbe8 64bd
000000d0: 5af6 cebd 6476 f83d 0f70 4fbd d0d8 cfbd
000000e0: 609a dfbd 9f7e 87bd 10f1 1b3e 609b 583e
000000f0: 8ef3 7b3e 3712 513e 8c99 223d 4b97 203e
00000100: 6b28 5abd 80f1 a13e 3a7c 3b3e f53e 963d
00000110: c089 e8ba 2676 2dbb 2153 f13c 675a e73d
00000120: a128 743e 1fc3 ddbb 852a 1c3e 505e f8bd
00000130: d55d b6bc 663a 7ebd f4e7 09be 10bd 39be
00000140: 3be4 033d 8c9d 9cbd a5e9 873e 64bd f73b
00000150: 335e ff3b 9c2d c0bd 2eef 73bd dacb 033e
00000160: 12e4 2c3e 5b57 eabc 4bb1 d1bd 4d49 b6bd
00000170: a784 883e 6d6a 6abe 0837 863e 5df4 003d
00000180: 31ba afbe 1615 20be 9229 023e 169a 103d
00000190: 4950 123e 40ab 663d 63f7 2f3d d461 9c3e
000001a0: 2984 793d 94f5 22be 9589 533e fcba 243b
000001b0: f695 0abd dc52 90bd 0be7 a43c 39e3 23bd
000001c0: 9058 5fbe 0e2b 3f3d 07aa 263e 1391 f03d
000001d0: 7662 bdbd 1bc0 db3d cf0e 803e e891 c23d

fc2.weight f4 [84, 120]
-0.025469467 0.019863611 -0.0063439636 -0.07139586 -0.18623056 -0.04186398 -0.1533116 0.012681076
0.04101297 0.18763345 -0.13148035 0.13778052 0.042434935 -0.10571269 -0.127465 0.11014745
0.02089346 -0.036859784 -0.07014513 0.011288421 0.00718657 -0.06596334 0.14360335 -0.16605778
-0.084532365 -0.12954655 0.18350418 -0.21491005 -0.063128196 0.060524225 -0.118434854 0.034569193
-0.09620114 -0.03235132 -0.016849222 0.18910761 0.0996503 0.15461281 -0.052101348 0.14183976
-0.067314625 -0.15457357 -0.19403775 0.018690113 0.20219839 0.042404555 -0.050881766 0.1199453
-0.12253007 -0.02243085 -0.09818558 -0.17010519 0.039440062 -0.07368221 0.17047952 -0.20549887
0.1289735 -0.01352998 -0.20857687 -0.13153936 0.057282016 0.0059890533 0.019282756 -0.24586928
-0.0064605502 -0.14478475 -0.002662065 -0.10252731 -0.07711519 -0.30638203 -0.20982197 0.0031403592
0.14544412 0.0071906373 -0.17796187 -0.027506605 -0.15701528 -0.33527318 -0.13397758 0.04816689
-0.20377049 -0.042537443 -0.12598906 -0.1764381 0.115094975 -0.15555844 -0.011671006 -0.053499434
-0.23763472 -0.21641742 0.02947429 -0.06276396 0.059371766 -0.02396623 -0.15650049 -0.007012553
0.019416008 0.16940548 0.09902837 -0.26293132 0.08141535 -0.12111249 -0.020639434 -0.22502337
0.17885405 0.12653641 0.008069048 -0.17097105 0.13262822 0.18002962 0.19073671 -0.07946233
0.051280458 0.23515713 0.099462405 -0.018641554 -0.08774981 -0.23978913 -0.15982729 -0.08614067
-0.07751812 0.018620027 0.009350548 -0.0023183967 -0.19745879 0.0031064574 -0.123681806 -0.09121402
0.006336136 -0.28238973 -0.18592097 -0.04815244 -0.018605968 -0.0060270894 0.1833299 -0.061134774
-0.030250551 -0.30567688 -0.2402501 -0.20107721 -0.08353079 0.15633884 -0.18753128 -0.046929862
-0.044582017 0.06423211 -0.0044572945 0.19929059 0.15910716 -0.015838183 0.30132744 0.008572434
-0.19214773 -0.10051595 -0.02920081 0.10292483 -0.16614239 -0.13979651 -0.059777778 0.08382698
0.052209962 0.14974034 0.03498446 -0.16853507 0.096304886 -0.08404934 -0.026498739 0.19282007
-0.16698857 -0.10048626 -0.14922224 -0.059661847 0.07746938 0.06786682 -0.09922084 -0.24671848
-0.01271773 -0.161873 -0.08204937 -0.04697704 0.055205036 -0.12515073 -0.002167624 -0.17121597
-0.11943826 -0.00012359626 0.18641625 -0.104484394 -0.11554699 -0.0106792 -0.022801766 -0.109518774
-0.11369969 -0.11899769 -0.011111034 0.043607403 -0.0942818 0.13824694 -0.03771977 -0.08293907
0.23352504 0.055429164 0.045795906 -0.30563053 -0.042875536 -0.19195113 -0.09846986 0.20921351
-0.13041471 -0.17048042 -0.046382867 -0.22201362 0.076373555 -0.1317654 0.053563513 0.0017420157
-0.027796006 0.108754046 0.05604121 0.019319639 -0.17736593 -0.11231899 -0.14228529 0.034170233
-0.061726604 -0.06513208 -0.1023859 -0.12785968 -0.07442832 0.089877576 -0.17560802 -0.12754504
0.2589866 -0.16184093 0.24159688 -0.035670545 -0.08168001 -0.30336112 -0.100139335 0.009026877
0.059936047 -0.049711946 0.047109235 0.031804405 -0.032163918 -0.068385765 -0.107795574 -0.11639382
0.054655716 -0.17431529 0.00068208383 0.0021677963 0.17513064 -0.14963971 -0.053988453 -0.08131244
00000000: 58a5 d0bc 03b9 a23c 06e1 cfbb fe37 92bd
00000010: 39b3 3ebe 9179 2bbd b7fd 1cbe 4ac4 4f3c
00000020: 37fd 273d fc22 403e c9a2 06be 5616 0d3e
00000030: 41d0 2d3d e57f d8bd 2f86 02be fc94 e13d
00000040: c328 ab3c 49fa 16bd 40a8 8fbd 12f3 383c
00000050: 527d eb3b ca17 87bd c20c 133e 0d0b 2abe
00000060: 4e1f adbd daa7 04be 85e8 3b3e 6111 5cbe
00000070: 5b49 81bd 40e8 773d f98d f2bd 6d98 0d3d
00000080: 1a05 c5bd d182 04bd 6107 8abc 6da5 413e
00000090: 7515 cc3d d252 1e3e 3968 55bd 713e 113e
000000a0: 40dc 89bd 8948 1ebe d5b1 46be 021c 993c
000000b0: 180d 4f3e 66b0 2d3d 6669 50bd e2a5 f53d
000000c0: 0cf1 fabd e7c0 b7bc 8515 c9bd 0e30 2ebe
000000d0: e78b 213d b3e6 96bd 2f92 2e3e 4c6e 52be
000000e0: a111 043e d9ac 5dbc 2d95 55be 41b2 06be
000000f0: 8ca0 6a3d d23f c43b dff6 9d3c 28c5 7bbe
00000100: 06b3 d3bb 7442 14be 0a76 2ebb d7f9 d1bd
00000110: 92ee 9dbd 1bde 9cbe 92db 56be 7cce 4d3b
00000120: 4eef 143e 709f eb3b a33b 36be 8855 e1bc
00000130: 9dc8 20be eda8 abbe 6b31 09be a54a 453d
00000140: 36a9 50be be3b 2ebd 4703 01be 30ac 34be
00000150: eab6 eb3d b64a 1fbe bf37 3fbc 3922 5bbd
00000160: 8456 73be 879c 5dbe 1174 f13c 648a 80bd
00000170: cf2f 733d d454 c4bc aa41 20be 8fc9 e5bb
00000180: 520e 9f3c a178 2d3e 63cf ca3d ef9e 86be
00000190: 17bd a63d d309 f8bd 0814 a9bc 876c 66be
000001a0: 8425 373e c392 013e 0a34 043c 0913 2fbe
000001b0: b1cf 073e af59 383e 7c50 433e 25bd a2bd
000001c0: 750b 523d 08cd 703e f2b2 cb3d 2cb6 98bc
000001d0: 2cb6 b3bd 488b 75be c4a9 23be 856a b0bd
000001e0: d2c1 9ebd 0789 983c 0a33 193c 3ef0 17bb
000001f0: a332 4abe b595 4b3b e34c fdbd 6bce babd
00000200: 5c9f cf3b 6395 90be 1162 3ebe 7e3b 45bd
00000210: 8b6b 98bc e47e c5bb d5ba 3b3e 7568 7abd
00000220: 01d0 f7bc ae81 9cbe 1f04 76be 2fe7 4dbe
00000230: 3112 abbd 4a17 203e 3308 40be 8739 40bd
00000240: a29b 36bd 208c 833d 7f0e 92bb d512 4c3e
00000250: fdec 223e 14bf 81bc 9747 9a3e 6573 0c3c
00000260: 60c2 44be 4edb cdbd 8936 efbc 41ca d23d
00000270: 3b21 2abe d126 0fbe 8bd9 74bd 7bad ab3d
00000280: 1dda 553d 8855 193e dd4b 0f3d 7594 2cbe
00000290: 7f3b c53d 0f22 acbd e213 d9bc a072 453e
000002a0: 0dff 2abe becb cdbd b7cd 18be fb5f 74bd
000002b0: 44a8 9e3d c2fd 8a3d 4c34 cbbd c5a3 7cbe
000002c0: 075e 50bc 09c2 25be 8009 a8bd ff6a 40bd
000002d0: ad1e 623d 8327 00be b20e 0ebb 3d53 2fbe
000002e0: 0c9c f4bd 9e99 01b9 e7e3 3e3e eafb d5bd
000002f0: e6a3 ecbd d0f7 2ebc c5ca babc 614b e0bd
00000300: 62db e8bd 10b5 f3bd 0e0b 36bc ad9d 323d
00000310: d116 c1bd 9b90 0d3e 0c80 1abd f6db a9bd
00000320: 3021 6f3e b109 633d 7d94 3b3d 9b7b 9cbe
00000330: 429e 2fbd d68e 44be 91aa c9bd 113c 563e
00000340: 6f8b 05be 6b92 2ebe f6fb 3dbd 8a57 63be
00000350: bd69 9c3d 82ed 06be 6a65 5b3d 5954 e43a
00000360: 73b4 e3bc 71ba de3d 788b 653d 3844 9e3c
00000370: 6a9f 35be 8007 e6bd 3cb3 11be 16f6 0b3d
00000380: 09d5 7cbd f863 85bd b3af d1bd a6ed 02be
00000390: e06d 98bd bc11 b83d 97d2 33be 2b9b 02be
000003a0: e499 843e a1b9 25be 2c65 773e 471b 12bd
000003b0: d947 a7bd 2652 9bbe da15 cdbd 77e5 133c
000003c0: 807f 753d c19e 4bbd 9df5 403d 5645 023d
000003d0: 50be 03bd d60d 8cbd edc3 dcbd e25f eebd
000003e0: acde 5f3d b57f 32be dfcd 323a 9611 0e3b
000003f0: 7255 333e 273b 19be ff22 5dbd 2387 a6bd

fc2.bias f4 [84]
0.21606497 0.27580303 -0.14014508 0.14663419 0.3633801 0.020727364 0.53938216 0.25574937
0.5159424 0.03328471 0.092641056 -0.0729036 0.18732552 0.049367342 0.007920202 0.41923928
-0.057291046 0.2828643 0.14023766 0.017176135 0.5990898 -0.10995381 -0.09797349 0.022148263
0.10774448 0.24890782 0.74081343 0.014981511 0.13442485 0.24705659 0.22763312 -0.13206111
0.5816288 0.44701535 0.5772981 0.058388103 0.102689095 -0.01881728 -0.26301354 -0.007133538
0.14430083 0.20610505 0.18720078 -0.004159889 0.10646594 0.061118633 0.672415 0.29709142
0.19720857 -0.02567001 0.17473838 0.38824773 0.100534104 0.42832565 0.673626 -0.092641294
0.07502484 -0.020912174 0.63006556 -0.11254216 0.24441245 -0.11692315 0.22080813 -0.095179975
-0.17858304 0.22536926 0.066694655 -0.050043363 -0.13945058 0.04053182 0.015298107 0.14696628
-0.06753791 0.14034659 0.20920122 0.30657405 0.35559437 0.073362894 -0.03233672 0.048536334
0.46205765 -0.0736363 0.43957406 -0.07494632
00000000: 2340 5d3e 0e36 8d3e 3182 0fbe 4627 163e
00000010: f50c ba3e 6fcc a93c f314 0a3f 95f1 823e
00000020: cd14 043f 8c55 083d 98ba bd3d 7c4e 95bd
00000030: 43d2 3f3e 6935 4a3d bcc3 013c 88a6 d63e
00000040: 04aa 6abd 97d3 903e 769a 0f3e f7b4 8c3c
00000050: f35d 193f 772f e1bd 53a6 c8bd 4670 b53c
00000060: 23a9 dc3d b1e1 7e3e f3a5 3d3f 0375 753c
00000070: aba6 093e 67fc 7c3e a818 693e 073b 07be
00000080: a0e5 143f 32df e43e cfc9 133f 5d28 6f3d
00000090: a94e d23d b226 9abc b6a9 86be 74c0 e9bb
000000a0: 99c3 133e 340d 533e 90b1 3f3e ae4f 88bb
000000b0: d10a da3d 8857 7a3d 6423 2c3f 5e1c 983e
000000c0: 0bf1 493e ea49 d2bc 9eee 323e 68c8 c63e
000000d0: d3e4 cd3d 804d db3e c172 2c3f b8ba bdbd
000000e0: a0a6 993d 0250 abbc fa4b 213f 817c e6bd
000000f0: 4247 7a3e 6875 efbd 871b 623e b8ed c2bd
00000100: 79de 36be 33c7 663e 3597 883d 45fa 4cbd
00000110: 22cc 0ebe b204 263d e9a4 7a3c 547e 163e
00000120: 5151 8abd 04b7 0f3e d838 563e 46f7 9c3e
00000130: 7710 b63e 493f 963d 8273 04bd 09ce 463d
00000140: d292 ec3e a1ce 96bd da0f e13e 757d 99bd

fc3.weight f4 [10, 84]
-0.012666639 0.10067249 0.26805097 0.072090395 0.010828045 -0.15197326 -0.011594898 -0.28159136
-0.17173813 0.0037892847 0.18077113 0.07489611 0.1154387 0.12669653 -0.07132365 -0.11186853
-0.22232372 0.16271216 0.14334603 0.14296187 -0.0407366 0.0024204138 0.015846021 -0.00575066
-0.16453598 0.0039976514 -0.38048285 0.029290814 0.1466053 -0.09208516 0.113683976 0.16513559
-0.2719216 0.31253952 -0.27324048 0.1573311 -0.1266268 -0.24002269 0.22630541 0.029160835
0.013115721 0.16497144 -0.06141955 0.011357683 0.14448586 0.24314201 -0.16308685 0.08146359
0.09405779 0.0668286 -0.06301349 0.23378816 -0.035013933 0.19030415 -0.112390734 -0.0670947
0.17074645 0.26700816 0.19378583 -0.029628638 0.103124775 0.0025063537 -0.2546589 -0.09042076
0.09768723 -0.040681086 -0.052269258 0.29227617 0.09886537 -0.06552491 -0.11627171 0.299269
-0.13335261 -0.096900955 0.06043337 0.23970206 0.14083256 -0.1075178 -0.066391975 0.23277299
-0.041645642 0.0054223323 -0.017860686 0.12113851 0.03016044 0.18871015 0.04855893 0.3363439
0.13997532 -0.0038001472 -0.09309491 0.24553616 -0.13020441 0.038147412 -0.10052289 0.09490852
-0.29143846 -0.07709586 -0.061076183 -0.31204808 0.13882038 -0.21831791 -0.19706586 -0.20489375
0.09745419 -0.017368894 0.08797286 0.05011641 0.1687778 -0.1290522 -0.3023207 0.32342377
-0.16606848 0.11511722 0.054537732 0.044766117 -0.43174395 0.40875292 -0.1808856 -0.023052644
0.1695932 0.14812551 0.21202631 0.012004852 0.32580024 0.15864226 -0.23376927 0.102704935
0.29569024 0.022236966 -0.19526964 -0.49180183 0.06835962 -0.02284223 -0.2627265 0.10684241
-0.11287939 0.025476903 -0.008826407 -0.12732269 0.025934964 -0.018884465 -0.23928793 0.0070535257
-0.14488597 -0.08821243 -0.075413235 0.15301475 -0.1898891 -0.18122898 -0.0019877509 0.24276386
0.08396502 0.13687445 0.14183019 -0.11839394 0.09317159 -0.062745325 -0.0342238 0.1714784
-0.2587069 0.09860917 -0.1430698 -0.22911139 -0.31981397 0.118871406 0.10430818 -0.066560194
0.07417763 -0.15717117 -0.07772271 -0.11919258 -0.077778265 -0.082168154 -0.18286236 -0.05382516
-0.12542725 0.022524057 0.11050246 0.11844847 -0.06778317 0.33230162 0.1383932 -0.037032485
0.033614453 0.14816217 0.22725533 0.05301914 0.05224954 0.05369671 0.089392066 -0.03487337
0.22643958 -0.021341724 0.17916346 0.13221017 -0.18183658 -0.053962488 0.1590207 0.10586957
0.22146894 -0.2878615 0.28944033 -0.089131944 0.1169759 0.10460752 0.01399046 0.043657146
-0.21942498 4.1469582e-05 0.09960313 0.06269446 -0.15955384 0.10547979 -0.03884784 0.29146498
0.029939275 -0.110867135 0.27478212 -0.20529333 -0.00048458134 0.22332525 0.1695403 0.098012105
0.0742332 0.10200936 0.28915897 0.029366339 0.03809626 0.29144266 0.07908939 0.019193439
0.075308956 -0.006672 0.06567963 0.059265804 0.22692604 0.17229742 -0.045041926 0.21998827
0.19873688 -0.07387031 -0.057401232 0.049906936 -0.0037883418 -0.16612333 0.08667816 -0.013425681
0.10439319 -0.048535943 -0.07849894 -0.07854541 0.103140555 -0.02351942 -0.11524919 -0.0389525
00000000: bc87 4fbc 612d ce3d fa3d 893e 21a4 933d
00000010: 1d68 313c e19e 1bbe 87f8 3dbc be2c 90be
00000020: 1fdc 2fbe a655 783b 111c 393e 2263 993d
00000030: 206b ec3d bcbc 013e 2212 92bd 541b e5bd
00000040: d4a8 63be 049e 263e 4dc9 123e 9964 123e
00000050: 6cdb 26bd ce9f 1e3b 84cf 813c 0870 bcbb
00000060: 1f7c 28be bbfe 823b a6ce c2be 4af3 ef3c
00000070: b31f 163e 2597 bcbd 25d3 e83d 4e19 293e
00000080: 4f39 8bbe 2e05 a03e 2de6 8bbe 671b 213e
00000090: 75aa 01be 82c8 75be 9bbc 673e b4e2 ee3c
000000a0: 52e3 563c 46ee 283e 1193 7bbd 9315 3a3c
000000b0: 1af4 133e 38fa 783e 3d00 27be 62d6 a63d
000000c0: 5fa1 c03d 6fdd 883d 370d 81bd 2a66 6f3e
000000d0: c56a 0fbd 17df 423e 1d2d e6bd f268 89bd
000000e0: 28d8 2e3e 4bb5 883e cb6f 463e c2b7 f2bc
000000f0: 1533 d33d a341 243b a762 82be 852e b9bd
00000100: 3e10 c83d 36a1 26bd 4a18 56bd 39a5 953e
00000110: ed79 ca3d ed31 86bd dd1f eebd c939 993e
00000120: 968d 08be 0274 c6bd fb88 773d 7574 753e
00000130: 6936 103e 4b32 dcbd 84f8 87bd 0b5c 6e3e
00000140: 9f94 2abd d2ad b13b 9350 92bc 7817 f83d
00000150: 0713 f73c 3c3d 413e bbe5 463d 4535 ac3e
00000160: b155 0f3e e40b 79bb 8ba8 bebd d56d 7b3e
00000170: 4e54 05be 7640 1c3d f2de cdbd 665f c23d
00000180: 6c37 95be 6fe4 9dbd 052b 7abd c4c4 9fbe
00000190: ee26 0e3e bb8e 5fbe a2cb 49be abcf 51be
000001a0: 1096 c73d 3649 8ebc 1d2b b43d dd46 4d3d
000001b0: 16d4 2c3e 4326 04be c7c9 9abe cd97 a53e
000001c0: db0d 2abe 94c2 eb3d f562 5f3d ad5c 373d
000001d0: 8b0d ddbe 1048 d13e 133a 39be e6d8 bcbc
000001e0: d7a9 2d3e 37ae 173e 6d1d 593e 00b0 443c
000001f0: 4acf a63e 1e73 223e 3661 6fbe f756 d23d
00000200: b664 973e 4c2a b63c c4f4 47be 73cd fbbe
00000210: 2100 8c3d a11f bbbc 1684 86be 32d0 da3d
00000220: 4f2d e7bd f0b4 d03c a29c 10bc e160 02be
00000230: 9075 d43c 98b3 9abc e507 75be 4321 e73b
00000240: fd5c 14be b8a8 b4bd 4172 9abd e6af 1c3e
00000250: 4a72 42be 1794 39be ed44 02bb 1797 783e
00000260: daf5 ab3d d128 0c3e ef3b 113e 8678 f2bd
00000270: bfd0 be3d 9f80 80bd 412e 0cbd 0998 2f3e
00000280: 3b75 84be 9bf3 c93d e480 12be 2d9c 6abe
00000290: a8be a3be da72 f33d 879f d53d b650 88bd
000002a0: 71ea 973d 7bf1 20be 162d 9fbd 3d1b f4bd
000002b0: 364a 9fbd c747 a8bd 4540 3bbe c577 5cbd
000002c0: 0070 00be 5f84 b83c 1d4f e23d 1d95 f23d
000002d0: e7d1 8abd 7023 aa3e f2b6 0d3e 60af 17bd
000002e0: 4faf 093d d3b7 173e 9fb5 683e 992a 593d
000002f0: 9d03 563d 15f1 5b3d 3013 b73d 61d7 0ebd
00000300: c7df 673e d7d4 aebc a076 373e 1a62 073e
00000310: 5e33 3abe c507 5dbd 53d6 223e 25d2 d83d
00000320: c1c8 623e 9562 93be 8631 943e cf8a b6bd
00000330: 1091 ef3d 783c d63d 3e38 653c d6d1 323d
00000340: f1b0 60be a0ef 2d38 bafc cb3d f465 803d
00000350: 1562 23be ca05 d83d ea1e 1fbd e63a 953e
00000360: 3643 f53c 4f0e e3bd 3eb0 8c3e 6a38 52be
00000370: 680f feb9 60af 643e f99b 2d3e 92ba c83d
00000380: 9307 983d 49ea d03d a50c 943e ad91 f03c
00000390: d30a 1c3d f937 953e 9ef9 a13d 8f3b 9d3c
000003a0: 953b 9a3d cba0 dabb 0b83 863d b3c0 723d
000003b0: 4d5f 683e bc6e 303e e27d 38bd 9b44 613e
000003c0: ae81 4b3e 5149 97bd 8e1d 6bbd 376b 4c3d
000003d0: d445 78bb 3c1c 2abe 5284 b13d 63f7 5bbc
000003e0: 19cc d53d a0cd 46bd 0dc4 a0bd 6adc a0bd
000003f0: 5b3b d33d ccab c0bc c407 ecbd a88c 1fbd

fc3.bias f4 [10]
-0.28527284 -0.89999807 -0.3801392 0.58644456 0.7736895 0.05326906 0.33297008 -0.2356937
0.18925704 -0.36291492
00000000: 480f 92be 4666 66bf 9ba1 c2be 3b21 163f
00000010: 8410 463f a830 5a3d 0e7b aa3e b059 71be
00000020: 99cc 413e fccf b9be
